…
2025-05-25 12:55:26,542 [MainThread] INFO Dataset - Batch size for train/val loader: 2
Train dataset size: 98431
Validation dataset size: 10937
Total number of trainable parameters: 124963
2025-05-25 12:55:27,004 [MainThread] INFO Loss - Creating loss function: MSELoss
2025-05-25 12:55:27,004 [MainThread] INFO Loss - Creating loss function: MSELoss
2025-05-25 12:55:27,004 [MainThread] INFO AutoencoderTrainer - Autoencoder(
  (encoders): ModuleList(
    (0): Encoder(
      (basic_module): ResBlockPNI(
        (conv1): SingleConv(
          (groupnorm): GroupNorm(1, 1, eps=1e-05, affine=True)
          (conv): Conv3d(1, 8, kernel_size=(1, 3, 3), stride=(1, 1, 1), padding=(0, 1, 1), bias=False)
          (ELU): ELU(alpha=1.0, inplace=True)
        )
        (conv2): SingleConv(
          (groupnorm): GroupNorm(2, 8, eps=1e-05, affine=True)
          (conv): Conv3d(8, 8, kernel_size=(3, 3, 3), stride=(1, 1, 1), padding=(1, 1, 1), bias=False)
          (ELU): ELU(alpha=1.0, inplace=True)
        )
        (conv3): SingleConv(
          (groupnorm): GroupNorm(2, 8, eps=1e-05, affine=True)
          (conv): Conv3d(8, 8, kernel_size=(3, 3, 3), stride=(1, 1, 1), padding=(1, 1, 1), bias=False)
        )
        (non_linearity): ELU(alpha=1.0, inplace=True)
      )
    )
    (1): Encoder(
      (pooling): Conv3d(8, 8, kernel_size=(3, 3, 3), stride=(2, 2, 2), padding=(1, 1, 1))
      (basic_module): ResBlockPNI(
        (conv1): SingleConv(
          (groupnorm): GroupNorm(2, 8, eps=1e-05, affine=True)
          (conv): Conv3d(8, 16, kernel_size=(1, 3, 3), stride=(1, 1, 1), padding=(0, 1, 1), bias=False)
          (ELU): ELU(alpha=1.0, inplace=True)
        )
        (conv2): SingleConv(
          (groupnorm): GroupNorm(2, 16, eps=1e-05, affine=True)
          (conv): Conv3d(16, 16, kernel_size=(3, 3, 3), stride=(1, 1, 1), padding=(1, 1, 1), bias=False)
          (ELU): ELU(alpha=1.0, inplace=True)
        )
        (conv3): SingleConv(
          (groupnorm): GroupNorm(2, 16, eps=1e-05, affine=True)
          (conv): Conv3d(16, 16, kernel_size=(3, 3, 3), stride=(1, 1, 1), padding=(1, 1, 1), bias=False)
        )
        (non_linearity): ELU(alpha=1.0, inplace=True)
      )
    )
    (2): Encoder(
      (pooling): Conv3d(16, 16, kernel_size=(3, 3, 3), stride=(2, 2, 2), padding=(1, 1, 1))
      (basic_module): ResBlockPNI(
        (conv1): SingleConv(
          (groupnorm): GroupNorm(2, 16, eps=1e-05, affine=True)
          (conv): Conv3d(16, 32, kernel_size=(1, 3, 3), stride=(1, 1, 1), padding=(0, 1, 1), bias=False)
          (ELU): ELU(alpha=1.0, inplace=True)
        )
        (conv2): SingleConv(
          (groupnorm): GroupNorm(2, 32, eps=1e-05, affine=True)
          (conv): Conv3d(32, 32, kernel_size=(3, 3, 3), stride=(1, 1, 1), padding=(1, 1, 1), bias=False)
          (ELU): ELU(alpha=1.0, inplace=True)
        )
        (conv3): SingleConv(
          (groupnorm): GroupNorm(2, 32, eps=1e-05, affine=True)
          (conv): Conv3d(32, 32, kernel_size=(3, 3, 3), stride=(1, 1, 1), padding=(1, 1, 1), bias=False)
        )
        (non_linearity): ELU(alpha=1.0, inplace=True)
      )
    )
  )
  (decoders): ModuleList(
    (0): Decoder(
      (upsampling): TransposeConvUpsampling(
        (upsample): ConvTranspose3d(32, 16, kernel_size=(3, 3, 3), stride=(2, 2, 2), padding=(1, 1, 1))
      )
      (basic_module): ResBlockPNI(
        (conv1): SingleConv(
          (groupnorm): GroupNorm(2, 16, eps=1e-05, affine=True)
          (conv): Conv3d(16, 16, kernel_size=(1, 3, 3), stride=(1, 1, 1), padding=(0, 1, 1), bias=False)
          (ELU): ELU(alpha=1.0, inplace=True)
        )
        (conv2): SingleConv(
          (groupnorm): GroupNorm(2, 16, eps=1e-05, affine=True)
          (conv): Conv3d(16, 16, kernel_size=(3, 3, 3), stride=(1, 1, 1), padding=(1, 1, 1), bias=False)
          (ELU): ELU(alpha=1.0, inplace=True)
        )
        (conv3): SingleConv(
          (groupnorm): GroupNorm(2, 16, eps=1e-05, affine=True)
          (conv): Conv3d(16, 16, kernel_size=(3, 3, 3), stride=(1, 1, 1), padding=(1, 1, 1), bias=False)
        )
        (non_linearity): ELU(alpha=1.0, inplace=True)
      )
    )
    (1): Decoder(
      (upsampling): TransposeConvUpsampling(
        (upsample): ConvTranspose3d(16, 8, kernel_size=(3, 3, 3), stride=(2, 2, 2), padding=(1, 1, 1))
      )
      (basic_module): ResBlockPNI(
        (conv1): SingleConv(
          (groupnorm): GroupNorm(2, 8, eps=1e-05, affine=True)
          (conv): Conv3d(8, 8, kernel_size=(1, 3, 3), stride=(1, 1, 1), padding=(0, 1, 1), bias=False)
          (ELU): ELU(alpha=1.0, inplace=True)
        )
        (conv2): SingleConv(
          (groupnorm): GroupNorm(2, 8, eps=1e-05, affine=True)
          (conv): Conv3d(8, 8, kernel_size=(3, 3, 3), stride=(1, 1, 1), padding=(1, 1, 1), bias=False)
          (ELU): ELU(alpha=1.0, inplace=True)
        )
        (conv3): SingleConv(
          (groupnorm): GroupNorm(2, 8, eps=1e-05, affine=True)
          (conv): Conv3d(8, 8, kernel_size=(3, 3, 3), stride=(1, 1, 1), padding=(1, 1, 1), bias=False)
        )
        (non_linearity): ELU(alpha=1.0, inplace=True)
      )
    )
  )
  (final_conv): Conv3d(8, 1, kernel_size=(1, 1, 1), stride=(1, 1, 1))
)
2025-05-25 12:55:27,005 [MainThread] INFO AutoencoderTrainer - eval_score_higher_is_better: False
2025-05-25 12:55:48,822 [MainThread] INFO AutoencoderTrainer - Training iteration [1000/2187350]. Epoch [0/49]
2025-05-25 12:56:05,865 [MainThread] INFO AutoencoderTrainer - Training iteration [2000/2187350]. Epoch [0/49]
2025-05-25 12:56:22,827 [MainThread] INFO AutoencoderTrainer - Training iteration [3000/2187350]. Epoch [0/49]
…
